converted_model.tflite (tflite, 56268 bytes, 2 tensors)

brute_force/MatMul/ReadVariableOp f4 [92, 128]
00000000: 74d2 c6bd e63b f83c 0ded 773c a010 61be
00000010: 3804 763d cd1a 053e 7ecf 0cbd 0f26 603e
00000020: 9be0 a93d 457c 1bbe 2275 3d3d 5286 133c
00000030: db4d 7ebe 6c30 09be 77ad 57bc 2fc5 5fbe
00000040: 5ba0 823d 2b3b 143e e715 023e 3016 e5bd
00000050: 78dc ab3d da23 9ebc 84fd 733d 63ff a63d
00000060: 66c7 db3c 5c2c 0cbe 9caa b0bd 383f 783d
00000070: a2a0 cebd 4072 40bd 3e5d acbd b326 d7bc
00000080: c7cf 123c 3a19 dc3d b807 29bd c83d 9ebd
00000090: 4341 41bd 545d bf3d 8dd7 86be c75f 81bd
000000a0: b983 293e cdb6 fe3d 3e5c 99bd 2fea a3bc
000000b0: 11f1 3e3e 61ac 833d bb59 8d3d b62a c03d
000000c0: 3b17 933d ccb0 2f3e 5dcd 08be ffb2 773d
000000d0: 99e3 233e 82b8 123e db5f d3bd 040e 9d3b
000000e0: 2fb7 19bd cd5b 233e 564f cd3d 12be a4bd
000000f0: a957 a0bd 31a7 0c3b 3974 713d b152 12be
00000100: 4b49 ccbd 15f4 a5bd 1734 c3bc 3ba8 d2bd
00000110: 8dd1 51bd 0133 513e 43fb 93bd ddcd 17be
00000120: eb31 d1bb 29d5 e4bd ddd8 243d 9eb8 e9bd
00000130: df4d 2bbd 623e 31be e6b0 67be e6d3 803e
00000140: 6d6e 5a3e ea01 9fbc e4b8 6a3e 7625 8d3d
00000150: 9aa8 6dbe c280 d4bd 9e3b 03be 1f3f 693d
00000160: aee6 973d f95e b8bd 030f 35bc 77ee 3a3d
00000170: aa3d b13d 77c1 d53d 6394 103e 2a4e 033d
00000180: 868a 103e 3dc1 7abe 3c40 423e c212 483d
00000190: 5169 57bc 8f46 7abd bb79 3bbe c3c4 34be
000001a0: a56e 383e 7cec c0bb 19b9 223e 9b25 81be
000001b0: 09db 303d 5ef0 babd a053 ec3d ba39 d3bd
000001c0: 9c75 9c3c 2082 773d f79e 31be 3117 4bbe
000001d0: 5c14 d2bd 2d77 ec3d d85c 6e3e 1b6d 36be
000001e0: 12b2 043e c8d5 c0bd 8aac a63d b0fb 2ebe
000001f0: ae2a 483c 45f0 423e adc5 803c 8280 2fbe
00000200: 278c 39bd d82f ce3c 1d47 91bc aa3c b23c
00000210: 8db9 163d 15c6 c63a 791f c2bc dfbc 6b3c
00000220: 079e 633c f55d 22bc 6095 8dbc 0c15 6bbc
00000230: b0ba 19bb a83e ab3c bcbf 093d 34f6 d7bc
00000240: ac07 2b3c b137 2b3d 5852 093d fe38 0cbd
00000250: 1c31 00bd 78a7 86bb 212b 21bd a758 eb3c
00000260: a465 c5bc a0de 6e3b 4d72 b9bc 4a76 2dbd
00000270: 9d8d d6bc 6ee5 2b3d c67d 503b 8493 a1bc
00000280: 69ef ab3b 796d 9d3c 0dc4 203c e3ef 2cbd
00000290: 7896 b13c b678 333d a851 423d 02dd cfbc
000002a0: bb0d 133c 5c91 353d c407 cebc 2dd4 1fbd
000002b0: 7bbe bb3c 4d5b 2a3d 065b d03c 5dac 7a3c
000002c0: d81b 07bc b725 32bd e874 293d 39d5 72bc
000002d0: cf9e 023c 659e 8abc 1046 483b de80 c63c
000002e0: 714f f23c acfe ae3b 13ac 493c 60c3 a83b
000002f0: aba0 58bc 6d51 593c bd14 b8bc 3e2d 453d
00000300: 47b0 08bd f606 92bc f256 26bd cdde 373d
00000310: e132 773c 8d16 863c 1d4f d0bb 0d99 16bd
00000320: b041 16bd ffe5 fa3b b681 27bd 8d2a b9bc
00000330: 5815 14bc 8a59 06bc 79b2 123d 348f 23bc
00000340: 993e 5b3c 1476 e93b 2bec 003d 2629 dc3a
00000350: 214f f73c e633 683b 8a4c 0ebd 37ac 253d
00000360: 25b2 1dbd 06b7 bdbc b235 193c 2055 3fbd
00000370: 01ce 26bd 9903 853c 9d82 903c 7d59 113d
00000380: 6ab0 01bd 64d1 173d 5338 32bd 90f2 e53c
00000390: f684 a13c 5750 4bbd 1046 40bd 1a47 87bc
000003a0: aaca 6abc c0df 10bd 28c2 a6bb 9b40 ef3c
000003b0: a967 513d 4556 eb3c 5919 82bc f2f9 85bb
000003c0: c6f1 0f3c 483b 833c 80a8 883b 2a11 fc3c
000003d0: 5f94 1abd a001 1e3d aba8 33bd 0ee8 ec3c
000003e0: 3db7 1c3b 6a6c b43c bab5 953c e675 2dbd
000003f0: 4d6f f9bc 0067 09bd 535c c8bc 5dfd d63b
-0.097081095 0.030302 0.015132201 -0.21978998 0.060062617 0.12998505 -0.034377567 0.21889518
0.08294793 -0.15184124 0.046254285 0.009004192 -0.24834387 -0.13397378 -0.013163916 -0.21852563
0.06378242 0.14475696 0.12703668 -0.111858726 0.083916605 -0.019304205 0.059567943 0.0815418
0.026828479 -0.13688797 -0.08626291 0.060607165 -0.10089232 -0.046983957 -0.08416222 -0.02626357
0.008960671 0.10746999 -0.041267127 -0.077266276 -0.04718138 0.09343973 -0.26336327 -0.06317096
0.16554154 0.1243721 -0.07488297 -0.020009128 0.18646647 0.06429363 0.0690188 0.093831465
0.07182165 0.17157286 -0.1335959 0.06047344 0.1600479 0.14328197 -0.10321017 0.0047929306
-0.037528213 0.15952988 0.10024898 -0.080440655 -0.0782922 0.0021461959 0.05894873 -0.14289357
-0.09974917 -0.081031956 -0.02382855 -0.10285994 -0.051225234 0.20429613 -0.07225659 -0.14824624
-0.0063841245 -0.111734696 0.04024588 -0.11412166 -0.04182231 -0.17308953 -0.22626075 0.25161666
0.21331187 -0.019410092 0.22922093 0.06891911 -0.23208848 -0.10376121 -0.12815711 0.056944963
0.074170455 -0.090024896 -0.011050942 0.045637574 0.086543396 0.10437291 0.14119105 0.032056965
0.14115342 -0.24487777 0.18969816 0.048846014 -0.013147668 -0.061102446 -0.18308155 -0.17653184
0.18010958 -0.005887566 0.15890922 -0.25224003 0.04317764 -0.09127878 0.11539388 -0.10313745
0.01909905 0.06042683 -0.17345797 -0.19833066 -0.102577895 0.115461685 0.23277605 -0.17815058
0.12958553 -0.094157755 0.08138378 -0.17088199 0.012217207 0.19036968 0.01571926 -0.17138866
-0.045299675 0.025169298 -0.017734105 0.021757443 0.03679805 0.0015165234 -0.023696648 0.014388292
0.013892657 -0.009910096 -0.017283142 -0.01434828 -0.0023457222 0.0209039 0.033630118 -0.026362516
0.010438841 0.04180116 0.033525795 -0.03423404 -0.031296834 -0.0041093193 -0.03934777 0.028728796
-0.024096318 0.0036448613 -0.02263751 -0.042349137 -0.026190573 0.041966848 0.0031813248 -0.019723661
0.005247046 0.01921724 0.009812367 -0.04222096 0.021678194 0.04381629 0.047441155 -0.02537394
0.008975442 0.04432808 -0.025150187 -0.039020706 0.022917977 0.041590977 0.025434028 0.015299884
-0.008246385 -0.043493 0.041371256 -0.014821344 0.007972433 -0.016921232 0.0030559339 0.02423137
0.029578896 0.005340418 0.012309092 0.0051502436 -0.0132219 0.013264042 -0.022470826 0.04813885
-0.033371236 -0.017825585 -0.04061026 0.044890214 0.015087814 0.016368175 -0.0063570873 -0.036767054
-0.03668374 0.007656812 -0.040895186 -0.022603298 -0.009038292 -0.008200059 0.035814736 -0.009982873
0.013381624 0.0071246717 0.031475227 0.0016796931 0.030189099 0.0035431325 -0.034740962 0.04044744
-0.03849997 -0.023158561 0.009351181 -0.04671204 -0.040723804 0.016237067 0.017640406 0.035485733
-0.031662382 0.037064925 -0.043510746 0.028069764 0.019716721 -0.049637165 -0.046941817 -0.016513396
-0.014330545 -0.035369635 -0.005089063 0.029205611 0.05112425 0.02872766 -0.015881227 -0.0040886337
0.008785671 0.016019478 0.0041704774 0.030769903 -0.037739154 0.03857577 -0.043862026 0.028919246
0.002391293 0.022024352 0.01827513 -0.042348765 -0.03044858 -0.033545494 -0.024458086 0.006560965

brute_force/sequential_5/embedding_5/embedding_lookup f4 [8, 128]
00000000: 5a9d c63c c09c 2dbc ba2b f2bc 188a 09bc
00000010: 1a90 cb3c 0c1d 94bc 847c 753c 3796 0e3d
00000020: 3044 d3bb 002c bf3a b005 e83b 11fb 433d
00000030: 47ab 193d 9a7d e4bc 3376 e7bc 8654 db3c
00000040: 4003 66bc 4725 1b3d 4ed3 903c a4fb 593c
00000050: b1aa 2a3d ce4f b83c a8e3 52bc a001 aa3a
00000060: f321 e3bc a0e3 ac3a a060 29bd 3ded 443d
00000070: b457 213c 186f ff3b 982b 97bb eea6 8d3c
00000080: 72d6 a43c c182 253d 3a63 a8bc 40db 353a
00000090: c050 2cba 4dbc 30bd fae3 e6bc 30fb e93b
000000a0: c06f b8bc a743 3ebd 7732 0e3d 9afb 23bd
000000b0: a764 d5bc 3a0a cb3c 4628 c53c 17fb 273d
000000c0: da42 42bd eacf 23bd 6013 41bb 008c 29bd
000000d0: f2e0 b33c 4c74 0cbc 9838 e93b 27f1 b7bc
000000e0: c727 ffbc 3a58 b4bc 8670 883c 0eee b23c
000000f0: f7bd 1e3d 01c8 333d bd10 193d f0e0 0abd
00000100: 5918 333d 52c2 ec3c 0c86 2f3c 0072 82bc
00000110: d0c7 0dbb 8a55 26bd f426 7d3c d0ec 8fbb
00000120: 8ec5 9d3c 46f6 a53c 11ef 363d e851 463c
00000130: 9a92 44bd 675b 3fbd 02f9 f13c 4051 18bd
00000140: 409a 45bd c74a 2d3d 134a a1bc 8d61 2dbd
00000150: ed17 d6bc 00e6 8bba baf1 a53c 92cd ee3c
00000160: 9272 dc3c e89e c03b 724e 823c 449c 763c
00000170: fd6c 17bd b3db e5bc 59fe 013d ea9b 3dbd
00000180: 60f1 69bb bab6 20bd b01f 94bb 7246 cf3c
00000190: cc94 67bc 0074 28ba 8645 0fbd 8076 f239
000001a0: 4d4b f0bc 708d 43bd 2802 0a3c a82d 75bc
000001b0: b424 153c 86aa 973c 7a81 d4bc 3a29 c43c
000001c0: 0e45 b63c 8c50 35bc ede9 a0bc 34e0 44bc
000001d0: 4728 efbc 8064 333c 9032 0fbd 4cca 533c
000001e0: 40a9 923a b355 0a3d 74a9 98bc 6e4c c23c
000001f0: ccfb 423c f3c3 15bd a88d 63bc d059 813b
00000200: 5b95 ebbd e4e2 353e 8d29 d93d 96b4 673e
00000210: e203 6b3e d0a5 723e cd9a fcbd c3e3 b8be
00000220: fdeb 5abd fa1d 39be 11d2 75be 6f65 a93e
00000230: c664 8d3e 46c6 82be c26d ddbe c031 e63e
00000240: afa8 053e 43d8 c13d 54e8 dfbe 298d 263c
00000250: d2b7 0abe b9a9 d03e ff91 553d ab6b 873e
00000260: b510 49be 189d c53d 886e 12be c673 493e
00000270: 0ccd 833e 26bf 93be a902 26be 1bb0 503e
00000280: 75bc 143e 0bc4 8c3e 5c3a 293e 9e27 c0bd
00000290: 407f ce3e 8835 ccbe 8cd0 803e 7c87 d33d
000002a0: b786 9cbe cc47 cdbe d707 9ebe cb37 9d3e
000002b0: 0ae5 aebe fbc0 a43e c3bf 36be 3cb2 36bd
000002c0: 0e80 a93d fa6d 9abc 0aa9 c73e fef1 123e
000002d0: 620a 7c3e af25 003e c3a4 12bd 2130 923e
000002e0: 9141 8cbd b96a 52bd 9e36 38be 5b1a 85be
000002f0: 5070 8dbe e378 403e f4f4 6b3c dfcb 8b3e
00000300: 6b80 0b3e 0897 a33e cd3d 593d 5281 4c3e
00000310: 12fe e03e 4fa2 a0bd 4d28 a93d 5ade 49be
00000320: e500 abbe cbe0 27be 4c92 083e d173 c4be
00000330: 620d d7be dd3a 2bbe bfa9 56be b2a0 f9bd
00000340: b9c0 5cbe 8aff 33be 8c93 c1be aaa5 9a3e
00000350: 2bb8 c53e b93d 323d 85b2 d53e d176 88be
00000360: 2a25 af3e 27c0 913c 336f 91be 549a 323d
00000370: e677 97be 558e cbbe ee86 093e 13a3 5d3e
00000380: 8e24 b93e 255e a33e 4988 89bd 8cee 8abd
00000390: 8a50 5c3e 7e1a 1c3e 9c5c 54be db6e 003e
000003a0: 15c6 fbbd 3920 9b3e d5bf 90be 1ba7 8e3d
000003b0: 97f3 debe 7ad7 d03d 5f52 86be a13f 843d
000003c0: f024 60be 9a71 06be 0b99 813e 6e35 bfbe
000003d0: 4b00 60be 9cb6 e43e 6e6b e8bd ae9b d73e
000003e0: 4010 b73d e5ba 62be 127f dd3c a40c 343a
000003f0: efe9 5bbe 1acd b7bc 9520 193e 6357 de3e
0.024244953 -0.010596454 -0.029561866 -0.0083947405 0.024848986 -0.018080257 0.0149833 0.034811225
-0.0064473376 0.0014585257 0.007080756 0.047846857 0.03751686 -0.027891923 -0.028254604 0.026773702
-0.014038861 0.037877347 0.017678883 0.013304625 0.04166669 0.022498991 -0.01287166 0.0012970455
-0.02772615 0.0013190396 -0.041351914 0.04807781 0.00984757 0.007795226 -0.004613351 0.017291512
0.020121787 0.0404079 -0.020555127 0.0006937273 -0.0006573312 -0.043148328 -0.02818488 0.0071405396
-0.022514224 -0.046451237 0.034716096 -0.040034868 -0.026048971 0.02478515 0.024067055 0.041010942
-0.047427036 -0.039993204 -0.0029461011 -0.04139328 0.021957848 -0.008572649 0.007117342 -0.022453858
-0.031146897 -0.022014726 0.016655218 0.021842029 0.038755383 0.04389191 0.03736948 -0.033905923
0.04372439 0.028901253 0.010713112 -0.0159235 -0.002163399 -0.04060892 0.015451182 -0.004392244
0.01925924 0.020259034 0.044661585 0.012104489 -0.047991373 -0.046718027 0.029537681 -0.03718686
-0.048242807 0.04230764 -0.019688642 -0.04232936 -0.026134456 -0.0010673404 0.020256866 0.029150758
0.0269101 0.005878318 0.015906546 0.015051905 -0.036969174 -0.028058862 0.031736705 -0.04629127
-0.003569685 -0.03923676 -0.004520379 0.025302146 -0.014134597 -0.0006425977 -0.034978412 0.00046246126
-0.029332781 -0.047742307 0.008423366 -0.014964499 0.009102989 0.01851393 -0.025940645 0.02394544
0.022249725 -0.011066567 -0.019642795 -0.012016345 -0.02919401 0.010949254 -0.03496033 0.012926649
0.0011189356 0.033773135 -0.018635489 0.023718085 0.011900853 -0.036563825 -0.013888754 0.003947474
-0.11503097 0.17762333 0.10603628 0.22627482 0.229507 0.23696065 -0.123342134 -0.36111268
-0.053447712 -0.18077841 -0.24005915 0.330852 0.27615947 -0.25541896 -0.432478 0.4495983
0.13052629 0.09465077 -0.4373194 0.010165491 -0.13546684 0.40754488 0.052141186 0.26449332
-0.1963528 0.09649104 -0.14299977 0.1967307 0.25742376 -0.28856772 -0.16211952 0.20379679
0.14525016 0.2749332 0.16526169 -0.093825564 0.4033146 -0.3988459 0.2515911 0.10328576
-0.3057153 -0.4009384 -0.30865356 0.3070663 -0.34159118 0.32178482 -0.17846589 -0.04460357
0.082763776 -0.018851269 0.38996154 0.14350125 0.24613336 0.12514375 -0.03580166 0.28552344
-0.06848443 -0.05137131 -0.17989585 -0.2599667 -0.2762475 0.18796115 0.014401663 0.2730398
0.13623206 0.31951165 0.053037453 0.19971207 0.4394384 -0.07843458 0.0825964 -0.19713727
-0.3339912 -0.16394345 0.13337058 -0.3836961 -0.42002398 -0.16721673 -0.2096319 -0.12188853
-0.21557893 -0.17577949 -0.37807882 0.30204517 0.38617072 0.043515895 0.41737762 -0.2665315
0.3420804 0.01779182 -0.2840515 0.04360421 -0.29583663 -0.39757028 0.13430378 0.21644239
0.36160702 0.31907764 -0.067154475 -0.067837805 0.21515098 0.15244481 -0.20738453 0.12542288
-0.122936405 0.3029802 -0.28271356 0.069654666 -0.4354522 0.10197349 -0.2623472 0.06457449
-0.2188909 -0.13129273 0.25312075 -0.3734545 -0.21875112 0.4467057 -0.113486156 0.42110962
0.08938646 -0.22141607 0.02703813 0.00068683387 -0.21475957 -0.022436667 0.14953835 0.43426046
